ofdm_process.onnx (onnx, 44808 bytes, 2 tensors)

unsqueeze f4 [15, 1]
0.0 0.071428575 0.14285715 0.21428573 0.2857143 0.35714287 0.42857146 0.5
0.57142854 0.64285713 0.71428573 0.78571427 0.85714287 0.9285714 1.0
00000000: 0000 0000 2549 923d 2549 123e b86d 5b3e
00000010: 2549 923e 6edb b63e b86d db3e 0000 003f
00000020: 2449 123f 4992 243f 6edb 363f 9224 493f
00000030: b76d 5b3f dbb6 6d3f 0000 803f

unsqueeze_1 f4 [15, 1]
1.0 0.9285714 0.85714287 0.78571427 0.71428573 0.64285713 0.57142854 0.5
0.42857146 0.35714287 0.2857143 0.21428573 0.14285715 0.071428575 0.0
00000000: 0000 803f dbb6 6d3f b76d 5b3f 9224 493f
00000010: 6edb 363f 4992 243f 2449 123f 0000 003f
00000020: b86d db3e 6edb b63e 2549 923e b86d 5b3e
00000030: 2549 123e 2549 923d 0000 0000
